…
/fp/projects01/ec232/venvs/g01env/lib/python3.10/site-packages/torchvision/transforms/v2/_deprecated.py:41: UserWarning: The transform `ToTensor()` is deprecated and will be removed in a future release. Instead, please use `transforms.Compose([transforms.ToImageTensor(), transforms.ConvertImageDtype()])`.
  warnings.warn(
====================================================================================================
Layer (type:depth-idx)                             Output Shape              Param #
====================================================================================================
DifferentiableSuperpixelTokenizerViT               [64, 1000]                192
├─VisionTransformer: 1-1                           --                        192
│    └─DifferentiableSuperpixelTokenizer: 2-1      [64, 196, 192]            --
│    │    └─Sequential: 3-1                        [64, 192, 224, 224]       --
│    │    │    └─Conv2d: 4-1                       [64, 64, 224, 224]        1,792
│    │    │    └─BatchNorm2d: 4-2                  [64, 64, 224, 224]        128
│    │    │    └─ReLU: 4-3                         [64, 64, 224, 224]        --
│    │    │    └─Conv2d: 4-4                       [64, 192, 224, 224]       110,784
│    │    │    └─BatchNorm2d: 4-5                  [64, 192, 224, 224]       384
│    │    │    └─ReLU: 4-6                         [64, 192, 224, 224]       --
│    │    └─Conv2d: 3-2                            [64, 2, 224, 224]         18
│    │    └─VoronoiPropagation: 3-3                [64, 196, 2]              --
│    │    └─Linear: 3-4                            [64, 196, 192]            73,920
│    │    └─Linear: 3-5                            [64, 196, 192]            576
│    └─Dropout: 2-2                                [64, 197, 192]            --
│    └─Identity: 2-3                               [64, 197, 192]            --
│    └─Sequential: 2-4                             [64, 197, 192]            --
│    │    └─Block: 3-6                             [64, 197, 192]            --
│    │    │    └─LayerNorm: 4-7                    [64, 197, 192]            384
│    │    │    └─Attention: 4-8                    [64, 197, 192]            148,224
│    │    │    └─Identity: 4-9                     [64, 197, 192]            --
│    │    │    └─Identity: 4-10                    [64, 197, 192]            --
│    │    │    └─LayerNorm: 4-11                   [64, 197, 192]            384
│    │    │    └─Mlp: 4-12                         [64, 197, 192]            295,872
│    │    │    └─Identity: 4-13                    [64, 197, 192]            --
│    │    │    └─Identity: 4-14                    [64, 197, 192]            --
│    │    └─Block: 3-7                             [64, 197, 192]            --
│    │    │    └─LayerNorm: 4-15                   [64, 197, 192]            384
│    │    │    └─Attention: 4-16                   [64, 197, 192]            148,224
│    │    │    └─Identity: 4-17                    [64, 197, 192]            --
│    │    │    └─DropPath: 4-18                    [64, 197, 192]            --
│    │    │    └─LayerNorm: 4-19                   [64, 197, 192]            384
│    │    │    └─Mlp: 4-20                         [64, 197, 192]            295,872
│    │    │    └─Identity: 4-21                    [64, 197, 192]            --
│    │    │    └─DropPath: 4-22                    [64, 197, 192]            --
│    │    └─Block: 3-8                             [64, 197, 192]            --
│    │    │    └─LayerNorm: 4-23                   [64, 197, 192]            384
│    │    │    └─Attention: 4-24                   [64, 197, 192]            148,224
│    │    │    └─Identity: 4-25                    [64, 197, 192]            --
│    │    │    └─DropPath: 4-26                    [64, 197, 192]            --
│    │    │    └─LayerNorm: 4-27                   [64, 197, 192]            384
│    │    │    └─Mlp: 4-28                         [64, 197, 192]            295,872
│    │    │    └─Identity: 4-29                    [64, 197, 192]            --
│    │    │    └─DropPath: 4-30                    [64, 197, 192]            --
│    │    └─Block: 3-9                             [64, 197, 192]            --
│    │    │    └─LayerNorm: 4-31                   [64, 197, 192]            384
│    │    │    └─Attention: 4-32                   [64, 197, 192]            148,224
│    │    │    └─Identity: 4-33                    [64, 197, 192]            --
│    │    │    └─DropPath: 4-34                    [64, 197, 192]            --
│    │    │    └─LayerNorm: 4-35                   [64, 197, 192]            384
│    │    │    └─Mlp: 4-36                         [64, 197, 192]            295,872
│    │    │    └─Identity: 4-37                    [64, 197, 192]            --
│    │    │    └─DropPath: 4-38                    [64, 197, 192]            --
│    │    └─Block: 3-10                            [64, 197, 192]            --
│    │    │    └─LayerNorm: 4-39                   [64, 197, 192]            384
│    │    │    └─Attention: 4-40                   [64, 197, 192]            148,224
│    │    │    └─Identity: 4-41                    [64, 197, 192]            --
│    │    │    └─DropPath: 4-42                    [64, 197, 192]            --
│    │    │    └─LayerNorm: 4-43                   [64, 197, 192]            384
│    │    │    └─Mlp: 4-44                         [64, 197, 192]            295,872
│    │    │    └─Identity: 4-45                    [64, 197, 192]            --
│    │    │    └─DropPath: 4-46                    [64, 197, 192]            --
│    │    └─Block: 3-11                            [64, 197, 192]            --
│    │    │    └─LayerNorm: 4-47                   [64, 197, 192]            384
│    │    │    └─Attention: 4-48                   [64, 197, 192]            148,224
│    │    │    └─Identity: 4-49                    [64, 197, 192]            --
│    │    │    └─DropPath: 4-50                    [64, 197, 192]            --
│    │    │    └─LayerNorm: 4-51                   [64, 197, 192]            384
│    │    │    └─Mlp: 4-52                         [64, 197, 192]            295,872
│    │    │    └─Identity: 4-53                    [64, 197, 192]            --
│    │    │    └─DropPath: 4-54                    [64, 197, 192]            --
│    │    └─Block: 3-12                            [64, 197, 192]            --
│    │    │    └─LayerNorm: 4-55                   [64, 197, 192]            384
│    │    │    └─Attention: 4-56                   [64, 197, 192]            148,224
│    │    │    └─Identity: 4-57                    [64, 197, 192]            --
│    │    │    └─DropPath: 4-58                    [64, 197, 192]            --
│    │    │    └─LayerNorm: 4-59                   [64, 197, 192]            384
│    │    │    └─Mlp: 4-60                         [64, 197, 192]            295,872
│    │    │    └─Identity: 4-61                    [64, 197, 192]            --
│    │    │    └─DropPath: 4-62                    [64, 197, 192]            --
│    │    └─Block: 3-13                            [64, 197, 192]            --
│    │    │    └─LayerNorm: 4-63                   [64, 197, 192]            384
│    │    │    └─Attention: 4-64                   [64, 197, 192]            148,224
│    │    │    └─Identity: 4-65                    [64, 197, 192]            --
│    │    │    └─DropPath: 4-66                    [64, 197, 192]            --
│    │    │    └─LayerNorm: 4-67                   [64, 197, 192]            384
│    │    │    └─Mlp: 4-68                         [64, 197, 192]            295,872
│    │    │    └─Identity: 4-69                    [64, 197, 192]            --
│    │    │    └─DropPath: 4-70                    [64, 197, 192]            --
│    │    └─Block: 3-14                            [64, 197, 192]            --
│    │    │    └─LayerNorm: 4-71                   [64, 197, 192]            384
│    │    │    └─Attention: 4-72                   [64, 197, 192]            148,224
│    │    │    └─Identity: 4-73                    [64, 197, 192]            --
│    │    │    └─DropPath: 4-74                    [64, 197, 192]            --
│    │    │    └─LayerNorm: 4-75                   [64, 197, 192]            384
│    │    │    └─Mlp: 4-76                         [64, 197, 192]            295,872
│    │    │    └─Identity: 4-77                    [64, 197, 192]            --
│    │    │    └─DropPath: 4-78                    [64, 197, 192]            --
│    │    └─Block: 3-15                            [64, 197, 192]            --
│    │    │    └─LayerNorm: 4-79                   [64, 197, 192]            384
│    │    │    └─Attention: 4-80                   [64, 197, 192]            148,224
│    │    │    └─Identity: 4-81                    [64, 197, 192]            --
│    │    │    └─DropPath: 4-82                    [64, 197, 192]            --
│    │    │    └─LayerNorm: 4-83                   [64, 197, 192]            384
│    │    │    └─Mlp: 4-84                         [64, 197, 192]            295,872
│    │    │    └─Identity: 4-85                    [64, 197, 192]            --
│    │    │    └─DropPath: 4-86                    [64, 197, 192]            --
│    │    └─Block: 3-16                            [64, 197, 192]            --
│    │    │    └─LayerNorm: 4-87                   [64, 197, 192]            384
│    │    │    └─Attention: 4-88                   [64, 197, 192]            148,224
│    │    │    └─Identity: 4-89                    [64, 197, 192]            --
│    │    │    └─DropPath: 4-90                    [64, 197, 192]            --
│    │    │    └─LayerNorm: 4-91                   [64, 197, 192]            384
│    │    │    └─Mlp: 4-92                         [64, 197, 192]            295,872
│    │    │    └─Identity: 4-93                    [64, 197, 192]            --
│    │    │    └─DropPath: 4-94                    [64, 197, 192]            --
│    │    └─Block: 3-17                            [64, 197, 192]            --
│    │    │    └─LayerNorm: 4-95                   [64, 197, 192]            384
│    │    │    └─Attention: 4-96                   [64, 197, 192]            148,224
│    │    │    └─Identity: 4-97                    [64, 197, 192]            --
│    │    │    └─DropPath: 4-98                    [64, 197, 192]            --
│    │    │    └─LayerNorm: 4-99                   [64, 197, 192]            384
│    │    │    └─Mlp: 4-100                        [64, 197, 192]            295,872
│    │    │    └─Identity: 4-101                   [64, 197, 192]            --
│    │    │    └─DropPath: 4-102                   [64, 197, 192]            --
│    └─LayerNorm: 2-5                              [64, 197, 192]            384
│    └─Identity: 2-6                               [64, 192]                 --
│    └─Dropout: 2-7                                [64, 192]                 --
│    └─Linear: 2-8                                 [64, 1000]                193,000
====================================================================================================
Total params: 5,719,738
Trainable params: 5,719,738
Non-trainable params: 0
Total mult-adds (G): 361.93
====================================================================================================
Input size (MB): 38.54
Forward/backward pass size (MB): 15819.43
Params size (MB): 22.88
Estimated Total Size (MB): 15880.84
…
